…
"user":{"displayName":"abhay ira","photoUrl":"","userId":"16936421234120284275"}},"colab":{"base_uri":"https://localhost:8080/","height":833}},"cell_type":"code","source":["cnn_model.summary()"],"execution_count":0,"outputs":[{"output_type":"stream","text":["__________________________________________________________________________________________________\n","Layer (type)                    Output Shape         Param #     Connected to                     \n","==================================================================================================\n","question_base (InputLayer)      (None, 12)           0                                            \n","__________________________________________________________________________________________________\n","answer_base (InputLayer)        (None, 50)           0                                            \n","__________________________________________________________________________________________________\n","embedding_10 (Embedding)        (None, 12, 300)      100661100   question_base[0][0]              \n","__________________________________________________________________________________________________\n","embedding_11 (Embedding)        (None, 50, 300)      100661100   answer_base[0][0]                \n","__________________________________________________________________________________________________\n","reshape_10 (Reshape)            (None, 12, 300, 1)   0           embedding_10[0][0]               \n","__________________________________________________________________________________________________\n","reshape_11 (Reshape)            (None, 50, 300, 1)   0           embedding_11[0][0]               \n","__________________________________________________________________________________________________\n","conv2d_18 (Conv2D)              (None, 10, 260, 4)   496         reshape_10[0][0]                 \n","__________________________________________________________________________________________________\n","conv2d_20 (Conv2D)              (None, 46, 260, 4)   824         reshape_11[0][0]                 \n","__________________________________________________________________________________________________\n","max_pooling2d_17 (MaxPooling2D) (None, 5, 26, 4)     0           conv2d_18[0][0]                  \n","__________________________________________________________________________________________________\n","max_pooling2d_19 (MaxPooling2D) (None, 9, 26, 4)     0           conv2d_20[0][0]                  \n","__________________________________________________________________________________________________\n","conv2d_19 (Conv2D)              (None, 4, 10, 2)     274         max_pooling2d_17[0][0]           \n","__________________________________________________________________________________________________\n","conv2d_21 (Conv2D)              (None, 7, 10, 2)     410         max_pooling2d_19[0][0]           \n","__________________________________________________________________________________________________\n","max_pooling2d_18 (MaxPooling2D) (None, 2, 5, 2)      0           conv2d_19[0][0]                  \n","__________________________________________________________________________________________________\n","max_pooling2d_20 (MaxPooling2D) (None, 3, 3, 2)      0           conv2d_21[0][0]                  \n","__________________________________________________________________________________________________\n","flatten_9 (Flatten)             (None, 20)           0           max_pooling2d_18[0][0]           \n","__________________________________________________________________________________________________\n","flatten_10 (Flatten)            (None, 18)           0           max_pooling2d_20[0][0]           \n","__________________________________________________________________________________________________\n","dense_12 (Dense)                (None, 4)            84          flatten_9[0][0]                  \n","__________________________________________________________________________________________________\n","dense_13 (Dense)                (None, 4)            76          flatten_10[0][0]                 \n","__________________________________________________________________________________________________\n","multiply_2 (Multiply)           (None, 4)            0           dense_12[0][0]                   \n","                                                                 dense_13[0][0]                   \n","__________________________________________________________________________________________________\n","dense_14 (Dense)                (None, 2)            10          multiply_2[0][0]                 \n","==================================================================================================\n","Total params: 201,324,374\n","Trainable params: 2,174\n","Non-trainable params: 201,322,200\n","__________________________________________________________________________________________________\n"],"name":"stdout"}]},{"metadata":{"id":"Rno83coQ_rDH
…
